CodeAlpha_Emotion_Recognition_from_Speech/models/best.pt (torch, 120251 bytes, 22 tensors)

features.0.weight f4 [16, 1, 3, 3]
0.21658784 0.2445198 -0.112554714 0.35954088 -0.014430589 0.1242458 -0.14914721 0.20441803
0.30222282 -0.22807813 0.30290616 0.081739604 0.21229534 0.014891541 0.115249634 -0.015696684
0.2969203 0.07384164 -0.14444374 0.10038244 -0.13261113 -0.0323684 -0.12957297 0.22906882
-0.28191012 -0.17321981 -0.11913214 -0.18980916 0.054520138 -0.30296665 0.32158634 -0.26038158
0.27964133 0.09655707 -0.078268796 0.22030285 0.033592805 0.26296136 0.03004916 -0.09652764
0.10522644 -0.07586123 0.15713114 0.3189786 0.18795265 -0.1616891 0.1822356 0.04687059
0.19626112 -0.16957755 -0.3035637 -0.15128222 -0.27175555 0.2769958 0.089594655 0.15448602
0.074215434 -0.0025880362 0.25733963 -0.2553827 0.061994888 -0.20364337 0.09590657 -0.1338105
0.08404813 -0.07156957 0.28426588 -0.17338005 -0.1842072 -0.21565913 0.29856983 0.116376124
0.32411015 -0.2704315 -0.324502 -0.27329078 -0.23167057 0.13443606 0.09619765 0.25752395
-0.19597624 -0.22699316 0.18615295 -0.122056045 0.17893994 -0.09619002 0.19620122 -0.25122374
-0.14933263 0.14180812 0.025871001 -0.13032816 0.1514557 0.23961525 -0.23080967 -0.16989361
0.34358448 -0.11215539 -0.12929991 -0.31491467 -0.18412729 0.08135987 -0.036002878 -0.23357815
0.014728551 -0.24678934 -0.29774758 -0.204391 -0.31066617 -0.23194468 0.3042606 0.05682485
0.10034261 -0.3167616 -0.22722152 -0.112983555 0.055817544 -0.31698295 -0.1744392 -0.23815782
0.024940107 -0.098227955 0.0030408213 -0.20863439 -0.19663845 -0.15842415 -0.10755557 -0.25902432
0.2838677 -0.11776256 0.25118303 0.080456436 -0.31388626 0.23017327 -0.092427455 -0.08551729
-0.2405546 -0.28769743 0.07539154 -0.09703634 0.10320577 -0.33349964 0.1989003 -0.28335193
00000000: 34c9 5d3e 6663 7a3e 1683 e6bd be15 b83e
00000010: 476e 6cbc 9574 fe3d 0cba 18be f652 513e
00000020: f3bc 9a3e 508d 69be 8416 9b3e 1867 a73d
00000030: f363 593e a6fb 733c 0008 ec3d 5596 80bc
00000040: f005 983e 493a 973d 0fe9 13be 4f95 cd3d
00000050: 36cb 07be ba94 04bd c7ae 04be 0491 6a3e
00000060: 8656 90be 8960 31be 8dfb f3bd 555d 42be
00000070: 8250 5f3d 721e 9bbe f7a6 a43e bc50 85be
00000080: 262d 8f3e b7bf c53d 644b a0bd 1297 613e
00000090: 9c98 093d dfa2 863e a829 f63c 49b0 c5bd
000000a0: f680 d73d 225d 9bbd fce6 203e 2a51 a33e
000000b0: a976 403e d491 25be f89b 3a3e 60fb 3f3d
000000c0: adf8 483e bda5 2dbe b46c 9bbe bae9 1abe
000000d0: 8b23 8bbe 65d2 8d3e 677d b73d 9531 1e3e
000000e0: 43fe 973d 0b9c 29bb 05c2 833e 85c1 82be
000000f0: 5aee 7d3d e387 50be aa6a c43d 9f05 09be
00000100: 6d21 ac3d 1193 92bd 4c8b 913e 8a8a 31be
00000110: d0a0 3cbe bfd5 5cbe 25de 983e 9b56 ee3d
00000120: c4f1 a53e ff75 8abe 2025 a6be c5ec 8bbe
00000130: 0d3b 6dbe 9ba9 093e 4603 c53d 2eda 833e
00000140: ffad 48be e570 68be e19e 3e3e 85f8 f9bd
00000150: 083c 373e 46ff c4bd f9e8 483e 66a0 80be
00000160: a7ea 18be 2636 113e 6cef d33c bf74 05be
00000170: 3417 1b3e b35d 753e 5f59 6cbe 97f8 2dbe
00000180: 4eea af3e bab1 e5bd 3267 04be 7f3c a1be
00000190: dd8b 3cbe 01a0 a63d c177 13bd 1c2f 6fbe
000001a0: 0550 713c 58b6 7cbe 5f72 98be e04b 51be
000001b0: a30f 9fbe e882 6dbe 0cc8 9b3e 2dc1 683d
000001c0: 6d80 cd3d 942e a2be c2ac 68be ec63 e7bd
000001d0: f0a0 643d 974b a2be 31a0 32be a5df 73be
000001e0: 324f cc3c bd2b c9bd 8448 473b 41a4 55be
000001f0: 975b 49be f139 22be 1846 dcbd d69e 84be
00000200: 1b57 913e 7f2d f1bd 109b 803e 58c6 a43d
00000210: b3b5 a0be 8bb2 6b3e 9b4a bdbd b023 afbd
00000220: f253 76be 144d 93be e166 9a3d fdba c6bd
00000230: 8c5d d33d 77c0 aabe 85ac 4b3e 8113 91be

features.0.bias f4 [16]
-0.05387864 0.0582694 0.17757596 0.26766565 0.3115336 -0.2610115 0.09315606 -0.1381754
-0.043573186 -0.24837612 0.29961756 -0.25859502 0.17119089 0.10360194 0.12953666 -0.16225857
00000000: d9af 5cbd e5ab 6e3d 79d6 353e 790b 893e
00000010: 5581 9f3e 4da3 85be 9bc8 be3d da7d 0dbe
00000020: cc79 32bd 4f56 7ebe 7967 993e 9166 84be
00000030: aa4c 2f3e 412d d43d 42a5 043e 1c27 26be

features.1.weight f4 [16]
1.019124 1.019012 1.0187864 1.0019112 1.0197309 0.99021167 0.97248685 1.0057012
0.98869926 0.9963438 1.0015818 0.9879485 0.9739949 0.9888346 1.0141064 1.0027605
00000000: a872 823f fc6e 823f 9867 823f a03e 803f
00000010: 8b86 823f 837e 7d3f e6f4 783f d1ba 803f
00000020: 651b 7d3f 6310 7f3f d533 803f 31ea 7c3f
00000030: bb57 793f 4424 7d3f 3dce 813f 755a 803f

features.1.bias f4 [16]
-0.05964544 -0.026208742 0.040986426 0.030147063 -0.023640232 0.0024159136 0.002851659 0.024925467
0.043549173 -0.025298351 -0.035690725 0.029282546 0.007938404 -0.0346709 0.056421723 -0.03275959
00000000: c74e 74bd b7b3 d6bc 62e1 273d f9f6 f63c
00000010: 29a9 c1bc 4e54 1e3b e6e2 3a3b 7e30 cc3c
00000020: 9e60 323d 7d3e cfbc 7030 12bd f3e1 ef3c
00000030: 1410 023c 1303 0ebd 771a 673d eb2e 06bd

features.1.running_mean f4 [16]
-0.0011204038 0.104959115 0.09588066 0.2999271 0.41217068 -0.2825917 0.084881745 -0.107490554
-0.015235549 -0.28535843 0.31304586 -0.36487934 0.1284495 0.025848174 0.09852773 -0.22308154
00000000: 83da 92ba cef4 d63d 145d c43d 0b90 993e
00000010: 0908 d33e dcaf 90be 7bd6 ad3d 0224 dcbd
00000020: 869e 79bc 801a 92be 8c47 a03e 77d1 babe
00000030: 4488 033e 8dbf d33c e8c8 c93d 7d6f 64be

features.1.running_var f4 [16]
0.30125517 0.13903576 0.052594177 0.31678122 0.12833577 0.08356544 0.098806225 0.023984017
0.2077056 0.12218701 0.037930682 0.22553699 0.07932083 0.5183611 0.070427395 0.41014946
00000000: 1e3e 9a3e 645f 0e3e fe6c 573d 2631 a23e
00000010: 746a 033e 5b24 ab3d eb5a ca3d 217a c43c
00000020: c7b0 543e 2f3d fa3d 345d 1b3d 2bf3 663e
00000030: f672 a23d 50b3 043f 3d3c 903d 1cff d13e

features.4.weight f4 [32, 16, 3, 3]
0.028458552 -0.015012164 -0.01850744 -0.114308536 -0.01221041 -0.06930594 -0.014424204 0.080083065
-0.013626234 -0.066835515 -0.054865945 -0.023003377 0.007259478 -0.06824213 -0.10139383 -0.0005034019
-0.045017794 -0.008324574 0.082235634 -0.057845384 0.04940696 0.061253626 0.039827485 -0.0077763386
0.06449415 0.058369536 0.05689569 0.012926119 0.0035955484 0.029013675 -0.005341806 -0.013874787
0.06721894 0.1261506 0.039464917 -0.0025393507 -0.0005849942 -0.0013424738 0.02235056 0.01751151
-0.08417708 -0.048372854 0.102511786 0.056261852 -0.016085185 -0.039786793 -0.02553056 -0.046584103
-0.011198871 0.03866125 0.058825593 -0.0108328285 -0.12696989 -0.103957616 -0.042161386 0.07473202
0.018676048 -0.03758174 0.012942333 -0.061512936 -0.055560403 0.060589872 -0.03337141 -0.01337007
-0.063727364 0.039405152 0.06433281 0.022674697 -0.056724656 -0.066191055 -0.07565298 0.021212738
0.04301349 0.079892315 0.05394453 0.029624052 0.007285191 -0.052775793 -0.089282446 -0.10298915
-0.01216129 -0.017004263 0.0014879678 -0.026919145 -0.021071881 -0.053673457 -0.050136797 0.04390126
-0.028990453 0.03946542 -0.032583468 -0.036413334 -0.00046870316 -0.0342651 -0.035572164 -0.08489312
0.0044526234 -0.06329755 0.028792609 0.0269075 0.05580192 -0.055034474 0.073314525 -0.029312918
0.03842358 0.056358796 -0.028136695 -0.00360121 -0.037018005 -0.07278984 0.03392213 -0.0772305
0.046232577 0.05678044 0.040508203 -0.046830963 -0.09182534 0.018025192 0.04944849 -0.07452624
-0.007368777 -0.038566582 0.004834988 -0.04755271 -0.03539869 -0.024586407 -0.06259539 0.06270161
0.06810945 -0.0456239 -0.036013093 -0.06336375 -0.07302099 -0.09553912 -0.008024357 -0.037265725
-0.045331776 0.00059703406 -0.02071187 -0.018322995 0.015235547 -0.011591663 -0.022803582 -0.04423326
-0.0584169 0.07352736 -0.038097605 0.038924802 -0.02313329 -0.000716768 0.07207338 0.029829042
-0.06753715 0.049612857 0.092079796 0.017120697 0.06793032 0.08087247 -0.028276732 0.021613073
-0.06590949 -0.01853704 0.0460131 0.035307653 -0.063710816 -0.081407286 -0.07118539 -0.09335954
-0.09654015 -0.049788255 0.024490057 0.0053604883 -0.06794432 -0.06916702 0.03508376 -0.07034843
-0.019215051 0.018554822 -0.060586296 -0.022316027 -0.0013515053 -0.011202065 -0.04224485 -0.06301254
-0.062161196 -0.046919823 0.07629098 -0.06305976 -0.074361786 0.01856374 0.02706748 0.048320137
0.056259844 0.046246294 -0.080357656 0.02724947 0.05844756 0.004008132 -0.058973968 0.09000493
-0.029547065 -0.005017517 -0.0577477 0.004497733 0.040793635 0.018045893 0.010192886 -0.06005331
-0.070732065 0.014821908 0.060314953 0.043825544 -0.054990686 0.013148882 -0.05414643 -0.012832007
0.012147868 0.04923554 0.0778626 -0.08185054 0.055815093 -0.056892745 0.082593486 0.100975044
0.0247406 0.06507414 -0.07432934 -0.03271765 0.05520037 -0.016459083 -0.012485256 -0.03753149
0.062347326 0.0525453 0.038304795 -0.03316619 -0.05204284 0.014411207 0.038090374 -0.025780711
0.02004458 0.08211542 0.018064735 -0.0020553486 -0.020656675 -0.076941594 -0.07744972 -0.037648752
-0.040111702 0.05528084 -0.010303213 -0.03407339 0.07249434 0.026953848 0.055751875 -0.041011132
00000000: e921 e93c 94f5 75bc ea9c 97bc 981a eabd
00000010: 2c0e 48bc 46f0 8dbd 7f53 6cbc 9702 a43d
00000020: 9140 5fbc 0fe1 88bd 1dbb 60bd 9471 bcbc
00000030: eae0 ed3b 88c2 8bbd 91a7 cfbd bbf6 03ba
00000040: 9464 38bd cb63 08bc 286b a83d 48ef 6cbd
00000050: f45e 4a3d 15e5 7a3d 2522 233d a8d0 febb
00000060: 8215 843d e514 6f3d 740b 693d 13c8 533c
00000070: 4ba3 6b3b 16ae ed3c 510a afbb 1353 63bc
00000080: 15aa 893d 9f2d 013e f7a5 213d 3c6b 26bb
00000090: 4c5a 19ba f2f5 afba 8618 b73c 4c74 8f3c
000000a0: 0865 acbd 9d22 46bd b3f1 d13d d472 663d
000000b0: 14c5 83bc 7af7 22bd 7725 d1bc f9ce 3ebd
000000c0: 787b 37bc 425b 1e3d 1bf3 703d 2d7c 31bc
000000d0: 6504 02be bbe7 d4bd 6bb1 2cbd 1a0d 993d
000000e0: 83fe 983c 50ef 19bd 140c 543c fdf4 7bbd
000000f0: 4e93 63bd 162d 783d 76b0 08bd 230e 5bbc
00000100: 7e83 82bd 4c67 213d ecc0 833d 49c0 b93c
00000110: 1d58 68bd 2d8f 87bd f3ef 9abd 56c6 ad3c
00000120: ea2e 303d 959e a33d f1f4 5c3d 24ae f23c
00000130: 9db8 ee3b 6e2b 58bd b7d9 b6bd faeb d2bd
00000140: 2640 47bc 864c 8bbc ea07 c33a 8a85 dcbc
00000150: f09e acbc b3d8 5bbd 3e5c 4dbd cfd1 333d
00000160: 637d edbc 7ea6 213d 3e76 05bd 2626 15bd
00000170: 46bc f5b9 9059 0cbd 1eb4 11bd 72dc adbd
00000180: 50e7 913b 25a2 81bd 7ade eb3c 1e6d dc3c
00000190: 8e90 643d d46b 61bd ed25 963d a521 f0bc
000001a0: 0b62 1d3d 7bd8 663d ed7e e6bc 4702 6cbb
000001b0: 31a0 17bd d712 95bd eef1 0a3d 062b 9ebd
000001c0: 5f5e 3d3d 9b92 683d eeeb 253d d3d1 3fbd
000001d0: ed0e bcbd 91a9 933c 808a 4a3d 37a1 98bd
000001e0: c875 f1bb fef7 1dbd d26e 9e3b a1c6 42bd
000001f0: 37fe 10bd 6f69 c9bc 0332 80bd b469 803d
00000200: f87c 8b3d 20e0 3abd 7782 13bd dbc4 81bd
00000210: 078c 95bd 04aa c3bd 9878 03bc f2a3 18bd
00000220: d0ad 39bd 4782 1c3a f1ab a9bc 1b1a 96bc
00000230: 849e 793c f5ea 3dbc 94ce babc ef2d 35bd
00000240: 8f46 6fbd 8395 963d 3c0c 1cbd 9d6f 1f3d
00000250: 0682 bdbc 7ce5 3bba 359b 933d 095c f43c
00000260: eb50 8abd da36 4b3d 5594 bc3d b440 8c3c
00000270: 0d1f 8b3d 77a0 a53d 9ba4 e7bc e60d b13c
00000280: 8efb 86bd feda 97bc 3b78 3c3d c29e 103d
00000290: d17a 82bd ddb8 a6bd a5c9 91bd 4933 bfbd
000002a0: d8b6 c5bd c5ee 4bbd 5f9f c83c 09a7 af3b
000002b0: 6426 8bbd 70a7 8dbd fdb3 0f3d d612 90bd
000002c0: e268 9dbc 4800 983c 5629 78bd 1ad0 b6bc
000002d0: fe24 b1ba de88 37bc f008 2dbd b80c 81bd
000002e0: bd9c 7ebd 002f 40bd 723e 9c3d 7a25 81bd
000002f0: fe4a 98bd fc12 983c 9fbc dd3c 56eb 453d
00000300: b970 663d c16c 3d3d 8e92 a4bd 483a df3c
00000310: b566 6f3d a656 833b b08e 71bd 8154 b83d
00000320: b00c f2bc fc69 a4bb da88 6cbd b861 933b
00000330: 3a17 273d fbd4 933c 1000 273c 76fa 75bd
00000340: f9db 90bd 97d7 723c d00c 773d 6a82 333d
00000350: ea3d 61bd 696e 573c a6c8 5dbd 573d 52bc
00000360: da07 473c 35ab 493d 6d76 9f3d 42a1 a7bd
00000370: 5e9e 643d 5e08 69bd c626 a93d 01cc ce3d
00000380: ccac ca3c 9745 853d fb39 98bd f102 06bd
00000390: c819 623d 33d5 86bc f68e 4cbc 9fba 19bd
000003a0: e95f 7f3d be39 573d 7de5 1c3d 45d9 07bd
000003b0: df2a 55bd fc1c 6c3c a704 1c3d 1232 d3bc
000003c0: 8834 a43c 212c a83d 7ffc 933c 07b3 06bb
000003d0: 3038 a9bc 8e93 9dbd f59d 9ebd 9435 1abd
000003e0: 2b4c 24bd 296e 623d cfce 28bc 8a90 0bbd
000003f0: ea77 943d 51ce dc3c 145c 643d 4afb 27bd

features.4.bias f4 [32]
0.0121402405 0.05731875 -0.061896127 -0.058226638 -0.093610615 0.033522792 0.06179248 -0.08718602
0.024417737 0.011542201 -0.054717522 0.0112448735 0.06107623 0.07268374 0.015435266 -0.0131692765
-0.046243373 -0.02942447 -0.0043660575 -0.011829997 0.06386072 -0.07551817 0.005651015 -0.029343814
-0.016392147 0.081499666 0.014461956 0.007308574 -0.008983351 -0.073692486 -0.097560644 0.03627372
00000000: dce7 463c 11c7 6a3d cb86 7dbd 0e7f 6ebd
00000010: ecb6 bfbd 324f 093d 1d1a 7d3d 968e b2bd
00000020: b507 c83c 801b 3d3c 7b1f 60bd 6b3c 383c
00000030: 122b 7a3d 36db 943d 33e4 7c3c f3c3 57bc
00000040: b169 3dbd 960b f1bc 2511 8fbb 9bd2 41bc
00000050: 69c9 823d 45a9 9abd 262c b93b 7062 f0bc
00000060: d348 86bc 4ce9 a63d d7f1 6c3c c37c ef3b
00000070: e82e 13bc 16ec 96bd e0cd c7bd c193 143d

features.5.weight f4 [32]
1.0456917 1.0368586 0.9707892 1.0317266 0.968603 1.0050337 0.96110547 1.0054961
0.9869953 0.97492725 0.98761827 1.0016769 1.0404203 0.9711136 1.0596871 0.96813786
0.9825136 1.0123087 1.0064121 0.99939066 0.9721576 1.0121386 0.9798279 1.0548551
0.99246454 0.9856554 0.9717031 0.98471665 1.0074149 1.0284057 1.0404713 0.996974
00000000: 3ad9 853f c8b7 843f a485 783f 9e0f 843f
00000010: 5ef6 773f f2a4 803f 020b 763f 19b4 803f
00000020: b9ab 7c3f d594 793f 8dd4 7c3f f336 803f
00000030: 7e2c 853f e79a 783f d4a3 873f e2d7 773f
00000040: 0386 7b3f 5593 813f 1dd2 803f 11d8 7f3f
00000050: 52df 783f c28d 813f 00d6 7a3f 7e05 873f
00000060: 2812 7e3f ea53 7c3f 89c1 783f 6416 7c3f
00000070: f9f2 803f cca2 833f 2a2e 853f b039 7f3f

features.5.bias f4 [32]
-0.0031653945 0.0057249237 -0.00024932553 -0.058055464 -0.007515964 0.014209986 -0.00270815 -0.02572477
0.014231329 0.00854341 -0.050870385 -0.008347796 0.015273335 -0.044051442 -0.042697605 -0.030794673
0.004703927 -0.02417143 -0.020012474 -0.011247461 0.01509872 0.002930819 -0.018003397 0.0037204374
0.021070624 0.01807332 -0.01984848 -0.0034764693 0.017716268 -0.019041212 0.016050652 -0.01229909
00000000: 8272 4fbb 2498 bb3b e8b7 82b9 91cb 6dbd
00000010: 7a48 f6bb 00d1 683c 387b 31bb c1bc d2bc
00000020: 852a 693c a9f9 0b3c 775d 50bd 32c5 08bc
00000030: 033d 7a3c 496f 34bd afe3 2ebd 1c45 fcbc
00000040: 6623 9a3b 2a03 c6bc 33f1 a3bc 4547 38bc
00000050: 9f60 773c fc12 403b dc7b 93bc 95d2 733b
00000060: 4d9c ac3c 800e 943c 4899 a2bc 7ad5 63bb
00000070: b521 913c 51fc 9bbc a87c 833c 1f82 49bc

features.5.running_mean f4 [32]
-0.1901988 -0.023537656 0.1961683 -0.1802407 0.0593399 -0.004075819 0.43675676 -0.020666622
-0.17314295 -0.22301136 0.038924523 -0.097533956 -0.1477696 0.31350738 -0.07416535 0.17897722
-0.3024223 -0.05127357 -0.16692165 -0.0853555 0.44187856 -0.20048985 0.22167955 -0.2509599
-0.08864346 -0.039840743 0.35132724 0.08885847 -0.018585442 -0.21861196 -0.23630944 0.1747633
00000000: 79c3 42be 0bd2 c0bc 58e0 483e 0591 38be
00000010: 650e 733d 738e 85bb 959e df3e 0c4d a9bc
00000020: 634c 31be 175d 64be 526f 1f3d e2bf c7bd
00000030: ea50 17be 0a84 a03e 01e4 97bd ce45 373e
00000040: 19d7 9abe 3c04 52bd 82ed 2abe ddce aebd
00000050: e83d e23e 364d 4dbe f7ff 623e d17d 80be
00000060: b48a b5bd 0c30 23bd 2ae1 b33e 6efb b53d
00000070: 7f40 98bc d0db 5fbe 1afb 71be 27f5 323e

features.5.running_var f4 [32]
0.058644053 0.0645803 0.1885585 0.04602677 0.1703845 0.10435976 0.27505097 0.04687587
0.36103815 0.80622655 0.022728046 0.45055574 0.033048015 0.5552019 0.017644137 0.21997458
0.40137658 0.03510855 0.10326184 0.11335594 0.3025301 0.07864985 0.19309834 0.06413454
0.5285041 0.31986007 0.32304993 0.09997092 0.14527239 0.081664346 0.03940277 0.041470986
00000000: bf34 703d ad42 843d 7b15 413e 9186 3c3d
00000010: 4679 2e3e 92ba d53d 7bd3 8c3e ea00 403d
00000020: fed9 b83e dd64 4e3f 2b30 ba3c 3eaf e63e
00000030: 5b5d 073d b621 0e3f 708a 903c 0441 613e
00000040: 3b81 cd3e fccd 0f3d f27a d33d 2927 e83d
00000050: 3ae5 9a3e 2c13 a13d 92bb 453e f858 833d
00000060: 0b4c 073f b3c4 a33e cd66 a53e 8ebd cc3d
00000070: 49c2 143e a33f a73d cd64 213d 7bdd 293d

features.8.weight f4 [64, 32, 3, 3]
0.01811766 0.07792439 0.038180694 0.053521562 0.07683917 0.060321297 0.05609609 0.08535971
0.02937115 -0.012569334 -0.09672907 0.00094112754 -0.069567844 -0.044887945 -0.007207497 -0.040486857
0.00889884 -0.060014706 -0.04485926 0.039985638 -0.037325513 0.031356562 0.050248154 0.0369559
-0.07339684 -0.047567584 -0.09705988 -0.01983418 0.0008746257 -0.018134601 0.03059211 0.02971883
0.006969979 0.010554691 0.07191218 0.026645549 0.035890702 0.035728626 -0.021724675 -0.05920186
0.050068483 -0.030838603 0.01553578 -0.076776445 -0.02516477 0.022183316 -0.014838162 0.06608131
-0.02760879 -0.0049996795 0.010479567 0.07637955 0.057487763 0.062438816 0.02726454 0.050197475
-0.009006748 -0.005433531 0.004426349 0.032452222 -0.034581427 0.002236941 -0.0190549 -0.035331685
0.003937533 -0.016254596 0.0023530524 -0.047570758 -0.07505088 -0.009250118 -0.016353365 0.0063197897
0.013735 -0.013222029 -0.033451732 -0.055572912 0.012363163 0.062373523 0.03454922 0.01620825
0.07092498 -0.04289771 -0.00053678267 -0.068257526 -0.055375867 -0.053130236 -0.036703665 0.041987255
0.041404977 -0.03730061 -0.05827188 -0.030115055 -0.04302857 -0.027335064 0.0041064103 -0.04765938
0.0024408263 0.009601611 -0.023432745 -0.033702116 -0.04509296 -0.05144334 0.0009395276 0.038337443
0.03796582 0.012785969 0.06486298 -0.014507555 -0.032750834 -0.07300188 -0.02931801 0.01059737
-0.013555845 -0.03737055 -0.05529747 -0.07690311 -0.06873914 -0.040919013 0.044908427 -0.016080888
0.005462157 -0.038747333 -0.002958362 0.019370193 0.003284461 -0.011292816 0.0027904927 0.0136012165
0.010869146 -0.02558497 0.027842807 -0.04706977 -0.031960007 0.06632457 -0.017251732 -0.044387955
0.009906073 0.05424147 -0.06032399 -0.039518084 -0.02324215 -0.0069324486 -0.018948141 -0.015153423
0.01925362 -0.036811918 0.029018769 -0.01165338 0.0037615318 -0.013599167 0.040985506 0.040519137
0.013114024 0.049890198 -0.017932868 0.022659393 0.04938278 0.030090747 -0.009547261 -0.016245414
0.018794524 0.015959233 -0.009988688 0.0019410049 -0.012061207 -0.023701428 -0.058677644 0.027811421
0.002590586 -0.008829749 -0.03538872 0.046110816 0.025003642 -0.02911766 -0.04720911 0.052637048
0.035701923 0.032937005 -0.011830453 0.0710508 -0.034837943 0.028477708 -0.044211987 -0.036489367
-0.042714536 0.05936214 0.023117509 -0.0779848 0.008259995 -0.020184021 -0.041370835 0.04982096
0.044114023 0.040819492 0.033099923 0.10252506 -0.0071805115 0.07868992 -0.0040561 0.00653308
0.04470296 -0.016566733 0.045897935 0.0017306912 0.053620186 0.007038166 0.009047203 0.015552807
-0.05914084 -0.09488242 0.024047364 -0.05681872 -0.019118087 0.010435355 -0.029675197 0.02344436
0.035224933 -0.011387664 0.020793837 0.011503222 0.06135383 0.04591882 -0.0060333433 0.036615595
0.062204894 0.05135097 0.019745672 0.023579122 0.0062418496 0.014623662 -0.03903354 0.060105592
0.05551805 -0.026028153 -0.04146494 0.049092144 -0.043306924 0.05420661 -0.041258033 -0.01605997
-0.017281687 0.053511035 -0.02526394 0.036431696 0.0007289095 0.050874542 0.033887908 0.0357442
0.04593588 -0.060053952 -0.063454755 -0.03252624 0.041473616 -0.03062616 -0.04049348 -0.042325377
00000000: 7d6b 943c d396 9f3d 5c63 1c3d 6d39 5b3d
00000010: db5d 9d3d 7713 773d 03c5 653d 12d1 ae3d
00000020: c49b f03c 9cef 4dbc e419 c6bd 00b6 763a
00000030: 9679 8ebd 6cdc 37bd de2c ecbb 8cd5 25bd
00000040: 71cc 113c fbd1 75bd 58be 37bd fbc7 233d
00000050: a3e2 18bd bd6f 003d 02d1 4d3d 125f 173d
00000060: 1551 96bd 3ad6 42bd 55c7 c6bd 4a7b a2bc
00000070: 2347 653a 048f 94bc 4e9c fa3c e774 f33c
00000080: 6c64 e43b 95ed 2c3c b146 933d c447 da3c
00000090: 2102 133d 2e58 123d f2f7 b1bc a67d 72bd
000000a0: 9c14 4d3d 3da1 fcbc c989 7e3c f83c 9dbd
000000b0: 5926 cebc c9b9 b53c c31b 73bc a355 873d
000000c0: d42b e2bc 5ad4 a3bb 7db2 2b3c e26c 9c3d
000000d0: 4a78 6b3d d8bf 7f3d e259 df3c de9b 4d3d
000000e0: 0a91 13bc c30b b2bb e80a 913b 9fec 043d
000000f0: 41a5 0dbd a499 123b 0619 9cbc f5b7 10bd
00000100: 6c06 813b 5c28 85bc ab35 1a3b 8ed9 42bd
00000110: 47b4 99bd cf8d 17bc 7ef7 85bc 3d16 cf3b
00000120: c408 613c 36a1 58bc af04 09bd 6ca0 63bd
00000130: dd8e 4a3c 617b 7f3d 7c83 0d3d 2ac7 843c
00000140: 1e41 913d 82b5 2fbd e0b6 0cba 9aca 8bbd
00000150: ced1 62bd 179f 59bd 9556 16bd d4fa 2b3d
00000160: 4498 293d 86c8 18bd 7fae 6ebd d9b3 f6bc
00000170: ba3e 30bd c9ed dfbc 118f 863b 7b36 43bd
00000180: 45f6 1f3b 1350 1d3c 07f6 bfbc 3b0b 0abd
00000190: 65b3 38bd 40b6 52bd a14a 763a b907 1d3d
000001a0: 0c82 1b3d 3e7c 513c e2d6 843d 19b1 6dbc
000001b0: bd25 06bd 0282 95bd 532c f0bc 97a0 2d3c
000001c0: 5619 5ebc dd11 19bd 9a7f 62bd 617f 9dbd
000001d0: 1bc7 8cbd b29a 27bd e6f1 373d 11bc 83bc
000001e0: e5fb b23b 86b5 1ebd 14e1 41bb 3dae 9e3c
000001f0: 1d40 573b 8105 39bc b3e0 363b a3d7 5e3c
00000200: 8114 323c 9297 d1bc 9916 e43c 3bcc 40bd
00000210: 7fe8 02bd 2dd5 873d 8153 8dbc 25d0 35bd
00000220: 154d 223c 4e2c 5e3d 4a16 77bd b7dd 21bd
00000230: 5266 bebc 9829 e3bb 2239 9bbc 1046 78bc
00000240: c5b9 9d3c 18c8 16bd c5b8 ed3c d1ed 3ebc
00000250: 0884 763b 0acf 5ebc 6be0 273d 65f7 253d
00000260: 34dc 563c aa59 4c3d f3e7 92bc 31a0 b93c
00000270: 9945 4a3d df80 f63c 1d6c 1cbc 1a15 85bc
00000280: f9f6 993c f0bc 823c 98a7 23bc 5169 fe3a
00000290: 5e9c 45bc 7f29 c2bc f857 70bd c7d4 e33c
000002a0: d2c6 293b a7aa 10bc c3f3 10bd b2de 3c3d
000002b0: 70d4 cc3c 2988 eebc 575e 41bd f299 573d
000002c0: 2e3c 123d f4e8 063d 84d4 41bc 1583 913d
000002d0: 3bb2 0ebd 154a e93c a117 35bd e075 15bd
000002e0: 70f5 2ebd b725 733d ee60 bd3c 7fb6 9fbd
000002f0: ee54 073c f658 a5bc 7774 29bd 1011 4c3d
00000300: e8b0 343d 5732 273d c993 073d a9f8 d13d
00000310: 7f4a ebbb 2e28 a13d 08e9 84bb 7213 d63b
00000320: 731a 373d f5b6 87bc 79ff 3b3d 5cd8 e23a
00000330: d7a0 5b3d 6aa0 e63b b83a 143c 33d1 7e3c
00000340: aa3d 72bd b751 c2bd fafe c43c bfba 68bd
00000350: 899d 9cbc 0df9 2a3c 6619 f3bc 630e c03c
00000360: 0548 103d 5393 3abc d657 aa3c 0378 3c3c
00000370: 274e 7b3d 5f15 3c3d 5ab3 c5bb 3cfa 153d
00000380: 8fca 7e3d 6555 523d adc1 a13c 0129 c13c
00000390: 6e88 cc3b 1698 6f3c a2e1 1fbd 4831 763d
000003a0: e566 633d fe38 d5bc 24d7 29bd d814 493d
000003b0: 9a62 31bd c007 5e3d 2ffe 28bd 3390 83bc
000003c0: 5392 8dbc 632e 5b3d 53f6 cebc 6739 153d
000003d0: 4a14 3f3a d361 503d 0cce 0a3d 8368 123d
000003e0: 4327 3c3d 22fb 75bd 91f4 81bd 3c3a 05bd
000003f0: 3de0 293d b6e3 fabc 7edc 25bd 605d 2dbd

features.8.bias f4 [64]
-0.029213363 0.00012797365 0.011789975 0.056594495 0.05323936 -0.055703655 0.027535083 -0.040438317
-0.040359173 0.017777056 -0.03891094 0.054044895 0.040230654 -0.0028825256 0.026364548 -0.05379535
-0.0012808838 0.015249104 -0.027392056 -0.0062669585 0.017168486 0.047006797 -0.027893793 0.044452924
0.023315957 -0.037539255 -0.04234057 -0.009840854 0.050284255 -0.054600667 -0.04772132 0.044000886
-0.023807272 -0.044375043 -0.0079986695 0.05390065 0.044776876 0.024865925 0.006722686 -0.027008574
-0.050458003 0.032298815 0.014764252 0.0248639 -0.03498438 -0.04869117 0.009729152 -0.006646142
0.0062159356 0.0050869836 -0.04256591 -0.026270594 -0.012779398 0.021123346 -0.038000777 0.06429605
-0.06338681 -0.025954645 0.01702836 -0.05183575 -0.034868952 0.03448874 -0.038880244 0.0147955185
00000000: dd50 efbc aa30 0639 bd2a 413c a1cf 673d
00000010: 8411 5a3d 8429 64bd 4191 e13c a6a2 25bd
00000020: a94f 25bd 30a1 913c 1461 1fbd 2e5e 5d3d
00000030: e6c8 243d c1e8 3cbb 77fa d73c 8358 5cbd
00000040: 54e3 a7ba 61d7 793c 4e65 e0bc 0f5b cdbb
00000050: eda4 8c3c 338a 403d 8681 e4bc 4514 363d
00000060: 1b01 bf3c c3c2 19bd 4e6d 2dbd 893b 21bc
00000070: ddf6 4d3d f3a4 5fbd 6e77 43bd 463a 343d
00000080: 7807 c3bc 9bc2 35bd da0c 03bc eec6 5c3d
00000090: f567 373d a0b3 cb3c fa49 dc3b 1641 ddbc
000000a0: 0dad 4ebd c34b 043d c3e5 713c 61af cb3c
000000b0: c84b 0fbd 6470 47bd 0567 1f3c e1c7 d9bb
000000c0: 0caf cb3b b6b0 a63b 9759 2ebd 6e35 d7bc
000000d0: ae60 51bc de0a ad3c b4a6 1bbd a6ad 833d
000000e0: f2d0 81bd d69e d4bc 0f7f 8b3c b951 54bd
000000f0: bfd2 0ebd 1144 0d3d e440 1fbd e768 723c

features.9.weight f4 [64]
1.0548428 1.0066589 1.0446643 1.0234154 1.0558218 1.0443754 1.0281498 1.0566183
1.0522146 1.0495416 1.0428361 1.0593233 1.0440807 1.0126508 1.0335656 1.0617902
1.0581859 1.0465351 1.0519396 1.0662085 1.0677997 1.0567119 1.0483853 1.0727168
1.0370606 1.0515804 1.0583147 1.0571028 1.0317042 1.0521518 1.0225886 1.0533531
1.0606555 1.0551382 1.0422645 1.0629933 1.0489955 1.0497994 1.0224084 1.0388298
1.0604424 1.0277201 1.0604999 1.0574827 1.0536199 1.0517222 1.0592651 1.0590286
1.055235 1.0576797 1.0704381 1.0286841 1.0653967 1.0555115 1.0426944 1.0464939
1.0401969 1.0641109 1.0421209 1.0730866 1.069306 1.0116667 1.0514761 1.0552776
00000000: 1705 873f 33da 803f 8fb7 853f 47ff 823f
00000010: 2b25 873f 18ae 853f 6a9a 833f 453f 873f
00000020: f8ae 863f 6157 863f a77b 853f e897 873f
00000030: 70a4 853f 8b9e 813f e14b 843f bee8 873f
00000040: a372 873f ddf4 853f f5a5 863f 8579 883f
00000050: a9ad 883f 5642 873f 7d31 863f c94e 893f
00000060: 67be 843f 309a 863f db76 873f 254f 873f
00000070: e20e 843f e9ac 863f 2fe4 823f 46d4 863f
00000080: 8fc3 873f c50e 873f ec68 853f 2a10 883f
00000090: 7c45 863f d45f 863f 47de 823f 60f8 843f
000000a0: 94bc 873f 558c 833f 76be 873f 985b 873f
000000b0: 04dd 863f d59e 863f 0096 873f 408e 873f
000000c0: f111 873f 0c62 873f 1e04 893f ecab 833f
000000d0: eb5e 883f 001b 873f 0377 853f 83f3 853f
000000e0: 2c25 853f c934 883f 3864 853f e75a 893f
000000f0: 05df 883f 4b7e 813f c596 863f 5613 873f

features.9.bias f4 [64]
0.045175254 -0.01494013 0.035225794 0.0037767284 0.042084623 0.03341754 0.0045126276 0.04316957
0.03733838 0.012214123 0.024346361 0.040897194 0.03287149 -0.002789913 0.017871594 0.053173393
0.052512378 0.036605347 0.039318446 0.051833365 0.05627488 0.04586883 0.02730081 0.05757329
0.013761747 0.03213501 0.03941034 0.04459786 0.019427376 0.04369305 -0.0006882946 0.03800574
0.046644837 0.03977218 0.014480065 0.05158668 0.02442336 0.027413877 0.017537955 0.025865622
0.033762295 0.024733156 0.047322717 0.029596178 0.047027748 0.03115222 0.040875997 0.03920764
0.043497827 0.046580713 0.06644998 0.020325758 0.055677474 0.043211665 0.038446248 0.042525373
0.01603128 0.03757946 0.010499896 0.06953023 0.048566848 0.0023057666 0.02101996 0.033657193
00000000: b009 393d 72c7 74bc ec48 103d fd82 773b
00000010: ed60 2c3d d5e0 083d aade 933b 93d2 303d
00000020: 21f0 183d bf1d 483c 0572 c73c d183 273d
00000030: 41a4 063d f9d6 36bb 7367 923c 58cc 593d
00000040: 3817 573d 7def 153d 610c 213d 394f 543d
00000050: 7d80 663d f4e0 3b3d f3a5 df3c f8d1 6b3d
00000060: f378 613c 00a0 033d bd6c 213d 3fac 363d
00000070: 2926 9f3c 7cf7 323d ab6e 34ba e8ab 1b3d
00000080: a80e 3f3d 27e8 223d cb3d 6d3c 8e4c 533d
00000090: 8013 c83c 1193 e03c c2ab 8f3c 24e4 d33c
000000a0: 554a 0a3d 309d ca3c 77d5 413d af73 f23c
000000b0: 2ba0 403d f132 ff3c 976d 273d 3198 203d
000000c0: c72a 323d 6bcb 3e3d ed16 883d 3482 a63c
000000d0: 100e 643d b7fe 303d d079 1d3d 162f 2e3d
000000e0: 0854 833c ebec 193d c107 2c3c dd65 8e3d
000000f0: 08ee 463d 581c 173b 0d32 ac3c 20dc 093d

features.9.running_mean f4 [64]
-0.112913 0.69334185 -0.107497886 0.2218006 0.32678527 -0.06989476 0.7369482 -0.09088327
-0.13446604 0.6637222 0.14613359 0.9218327 0.080472276 -0.11936969 0.23293957 0.18842854
0.026737053 0.44436353 -0.00040945597 0.0012200694 0.17096879 0.0010058582 0.06330375 0.45902854
0.7188002 -0.100994945 0.3926927 -0.16141085 0.15906264 0.38461083 0.2774426 0.08491649
0.28972903 -0.16772734 0.048777413 0.11148966 -0.23142543 -0.1578913 -0.044026025 -0.02783314
0.069334485 -0.46220395 0.39670143 0.55727637 -0.0055236006 0.38330966 0.738155 0.11804438
-0.2539731 -0.29626447 -0.15224458 -0.058101237 0.13363785 -0.16198683 -0.5231021 0.38991168
-0.08535923 0.28157273 0.2770552 0.48161957 0.5883308 -0.19345424 0.7236442 0.7055994
00000000: ee3e e7bd da7e 313f da27 dcbd b21f 633e
00000010: 6650 a73e fc24 8fbd a3a8 3c3f 0221 babd
00000020: 77b1 09be b3e9 293f 0ba4 153e 3afd 6b3f
00000030: a6ce a43d 1978 f4bd b687 6e3e 69f3 403e
00000040: aa07 db3c 9e83 e33e 40ac d6b9 bcea 9f3a
00000050: 7112 2f3e 00d7 833a 65a5 813d ca05 eb3e
00000060: 4a03 383f 70d6 cebd 040f c93e e348 25be
00000070: 51e1 223e b6eb c43e f50c 8e3e b2e8 ad3d
00000080: 5d57 943e b7c0 2bbe d3ca 473d b154 e43d
00000090: cafa 6cbe 42ae 21be a254 34bd 5302 e4bc
000000a0: 3dff 8d3d ffa5 ecbe 731c cb3e aaa9 0e3f
000000b0: 52ff b4bb 2a41 c43e baf7 3c3f 40c1 f13d
000000c0: c308 82be faaf 97be 01e6 1bbe 90fb 6dbd
000000d0: 5cd8 083e e0df 25be 05ea 05bf 81a2 c73e
000000e0: d2d0 aebd 4d2a 903e 2eda 8d3e d796 f63e
000000f0: d99c 163f de18 46be bf40 393f 2aa2 343f

features.9.running_var f4 [64]
0.11553054 0.1265082 0.09525762 0.084241845 0.10787394 0.08821676 0.13640994 0.09389353
0.09014851 0.103313096 0.09407682 0.1653085 0.07952153 0.08023757 0.119897515 0.09456461
0.11728303 0.081319794 0.12842491 0.12689492 0.1822038 0.09872815 0.085895486 0.110906266
0.143024 0.11266806 0.10803765 0.10557417 0.13824138 0.10750975 0.20508133 0.082092
0.09233695 0.11161323 0.086002246 0.10643933 0.11679641 0.103997655 0.13224852 0.19576927
0.1033994 0.12451918 0.0738894 0.0863631 0.07738739 0.115601055 0.09972326 0.10982083
0.093201086 0.22580762 0.17111301 0.10446188 0.10491829 0.14313804 0.24903995 0.1270933
0.09781891 0.12054354 0.08849243 0.14679258 0.115041114 0.09154978 0.13450801 0.1318881
00000000: 479b ec3d 5e8b 013e 6d16 c33d fd86 ac3d
00000010: 03ed dc3d fdaa b43d 0caf 0b3e 404b c03d
00000020: c89f b83d d195 d33d 59ab c03d a246 293e
00000030: 2fdc a23d 9853 a43d d48c f53d 17ab c13d
00000040: 1632 f03d fe8a a63d d281 033e bef0 013e
00000050: a293 3a3e fc31 ca3d f9e9 af3d d322 e33d
00000060: e274 123e 83be e63d d842 dd3d 4537 d83d
00000070: 268f 0d3e 122e dc3d d700 523e da1f a83d
00000080: 281b bd3d 7a95 e43d f221 b03d ddfc d93d
00000090: f532 ef3d b9fc d43d 286c 073e bd77 483e
000000a0: 11c3 d33d e903 ff3d 5353 973d 23df b03d
000000b0: 487d 9e3d 3fc0 ec3d b53b cc3d bee9 e03d
000000c0: 36e0 be3d 1d3a 673e 4038 2f3e 1cf0 d53d
000000d0: 67df d63d c792 123e 5404 7f3e bf24 023e
000000e0: 4855 c83d 88df f63d 853b b53d cb50 163e
000000f0: ad9a eb3d 737e bb3d 78bc 093e ad0d 073e

classifier.1.weight f4 [64, 64]
-0.07218662 -0.06464333 0.016125621 0.0065420126 0.10781459 0.020442935 0.016199453 -0.070485875
0.103081405 -0.007204214 0.069233626 -0.10562126 0.0598353 0.09599194 0.075439 0.09887228
-0.06238346 -0.09524532 0.039439205 0.048600685 -0.081515774 -0.045705263 -0.0071667363 -0.016048858
0.05422436 0.08322294 0.030568065 -0.055049654 -0.08352399 0.102397546 0.008443222 -0.07096334
-0.098828 -0.090487234 0.111178875 -0.08428932 -0.12725833 -0.09921501 -0.06491891 -0.00938221
-0.09127483 0.049485046 -0.026078595 -0.057599198 -0.081400305 -0.045141373 0.115881205 0.0007343738
0.029658373 -0.1266541 0.07076354 0.014181719 -0.019392475 -0.003304912 -0.06331735 -0.102605164
-0.06812356 0.0336547 0.100017555 -0.09261062 0.05194484 -0.06632293 0.088684045 0.009689857
-0.113572106 -0.10782765 0.030074492 0.069814175 0.03689587 0.03439851 -0.019621566 -0.062370002
0.021560133 -0.099090666 0.062374473 -0.047602102 -0.11205493 0.01358287 0.048050284 -0.09539211
-0.07890168 -0.022389457 -0.051708534 0.10127868 0.019039989 -0.039023817 -0.09740044 -0.09244102
0.04276006 -0.029912606 0.017559424 0.022636697 0.08713734 0.0008691251 0.055844873 -0.11720234
0.08805129 -0.106796 -0.035810187 -0.124642044 0.06375852 -0.0329853 -0.122789904 -0.06906384
0.06850879 0.08419278 0.08758712 -0.11908808 -0.051366493 0.02019228 -0.007823974 -0.06345239
0.121664256 -0.077684924 0.08158256 0.080351055 -0.10729225 -0.08279987 -0.08403848 0.09129034
-0.109567314 0.0015044212 -0.038191304 -0.029048428 -0.07387014 -0.107822865 -0.10742736 -0.013318613
0.034022972 0.03635783 0.076053545 -0.0068267286 0.018792676 0.10397153 -0.116481416 0.14807634
0.02247663 -0.011593057 -0.17304933 0.042568605 0.03973545 0.061970018 0.0132141 -0.10366423
0.082564875 0.07769828 -0.02656847 0.10068205 -0.097654834 -0.002769418 0.03120497 0.08365539
0.06318223 -0.008506128 -0.1456927 0.043256365 -0.085268535 -0.016340014 0.08673469 0.08846079
-0.045852784 0.09393746 0.054003514 -0.114079945 0.10952243 -0.045834575 -0.037156 -0.09725894
-0.014893891 0.13106404 -0.0030029286 0.014314905 -0.12838002 -0.12660448 -0.06938578 -0.10895625
0.04772878 -0.17233334 0.073912516 -0.01689167 0.11647996 0.12257662 0.07291286 -0.01330344
0.037770756 0.05565383 -0.084129326 -0.049896974 0.013231343 0.02249255 -0.11198822 0.015512634
-0.049885556 0.11348735 -0.118224904 -0.021136349 0.008623168 -0.03009881 0.12858334 -0.034593504
-0.044290654 -0.08856705 -0.025286192 -0.08111904 0.0068624676 -0.05398483 0.07219316 0.14810771
0.050591208 -0.09944298 -0.10369417 -0.09594856 -0.03787379 -0.016985793 -0.15870199 -0.10452918
-0.0038977917 -0.12114515 0.09645074 0.0065947017 0.121767186 0.09730337 -0.03550916 -0.056491166
0.10114619 -0.14916787 0.005159551 -0.07575582 0.029557148 -0.07153939 0.03637536 0.08359747
-0.016809488 -0.0054508485 0.004022619 0.054557428 0.073040105 0.15178832 0.005429138 0.07915762
0.005170338 0.08012638 0.06086737 0.052086193 -0.1240188 -0.05788466 -0.042871878 0.08101771
-0.0790916 0.05653686 -0.00079990964 0.08386177 0.043315705 -0.02220688 -0.024067748 0.1394306
00000000: 94d6 93bd b963 84bd e119 843c 615e d63b
00000010: e5cd dc3d f177 a73c b7b4 843c e65a 90bd
00000020: 581c d33d 5411 ecbb 5cca 8d3d f64f d8bd
00000030: dc15 753d 6c97 c43d c37f 9a3d 8d7d ca3d
00000040: cd85 7fbd fa0f c3bd 018b 213d 8311 473d
00000050: bef1 a6bd 7135 3bbd f1d6 eabb e578 83bc
00000060: 5d1a 5e3d ca70 aa3d e169 fa3c bf7b 61bd
00000070: a00e abbd ceb5 d13d 7155 0a3c 3a55 91bd
00000080: 5666 cabd 5f51 b9bd c0b1 e33d e19f acbd
00000090: 0250 02be 3d31 cbbd 35f4 84bd d7b7 19bc
000000a0: 4cee babd d5b0 4a3d c7a2 d5bc 23ed 6bbd
000000b0: 34b5 a6bd 29e6 38bd 2053 ed3d fe82 403a
000000c0: 1ef6 f23c 9db1 01be 7aec 903d 715a 683c
000000d0: f8dc 9ebc 3997 58bb 87ac 81bd a822 d2bd
000000e0: 5d84 8bbd 83d9 093d 01d6 cc3d a3aa bdbd
000000f0: 1dc4 543d 51d4 87bd fb9f b53d 35c2 1e3c
00000100: 7e98 e8bd bed4 dcbd c85e f63c bcfa 8e3d
00000110: 2020 173d 74e5 0c3d 68bd a0bc b077 7fbd
00000120: e09e b03c 0cf0 cabd 607c 7f3d 6cfa 42bd
00000130: 0e7d e5bd b08a 5e3c 60d0 443d f05c c3bd
00000140: 3497 a1bd 186a b7bc 54cc 53bd 326b cf3d
00000150: c0f9 9b3c 70d7 1fbd e279 c7bd b851 bdbd
00000160: 2c25 2f3d 480b f5bc c8d8 8f3c 9870 b93c
00000170: 1075 b23d 00d6 633a 98bd 643d c807 f0bd
00000180: 3c54 b43d dcb7 dabd b4ad 12bd 5444 ffbd
00000190: d493 823d 981b 07bd 4679 fbbd 5871 8dbd
000001a0: 564e 8c3d 446d ac3d e060 b33d 74e4 f3bd
000001b0: ac65 52bd 486a a53c 2030 00bc 54f3 81bd
000001c0: 1c2b f93d 4619 9fbd c214 a73d 188f a43d
000001d0: 0abc dbbd fa92 a9bd 5e1c acbd 6ef6 ba3d
000001e0: d464 e0bd 0030 c53a 7c6e 1cbd f8f6 edbc
000001f0: 3a49 97bd 3cd2 dcbd e002 dcbd 5036 5abc
00000200: ac5b 0b3d f3eb 143d f6c1 9b3d c0b2 dfbb
00000210: 19f3 993c 07ef d43d cf8d eebd 53a1 173e
00000220: e920 b83c cef0 3dbc d833 31be 6b5c 2e3d
00000230: a4c1 223d 46d4 7d3d f47f 583c e94d d4bd
00000240: c617 a93d 4720 9f3d 1fa6 d9bc 6432 ce3d
00000250: 42ff c7bd 207f 35bb 91a1 ff3c 8453 ab3d
00000260: af65 813d 495d 0bbc 7830 15be 962d 313d
00000270: 45a1 aebd 7edb 85bc f5a1 b13d ee2a b53d
00000280: 21d0 3bbd 4862 c03d ca32 5d3d bfa2 e9bd
00000290: 4c4d e03d 09bd 3bbd e430 18bd b22f c7bd
000002a0: 8205 74bc a735 063e c8cc 44bb 1089 6a3c
000002b0: 0d76 03be 9ba4 01be 221a 8ebd 7424 dfbd
000002c0: 417f 433d 2778 30be 725f 973d 6660 8abc
000002d0: 0c8d ee3d 7309 fb3d 5653 953d acf6 59bc
000002e0: 82b5 1a3d 45f5 633d ff4b acbd c560 4cbd
000002f0: 46c8 583c 4c42 b83c 145a e5bd b428 7e3c
00000300: cc54 4cbd 0e6c e83d e61f f2bd 2326 adbc
00000310: 3048 0d3c c891 f6bc 5aab 033e ebb1 0dbd
00000320: 1e6a 35bd a462 b5bd fd24 cfbc bd21 a6bd
00000330: 8dde e03b 321f 5dbd 02da 933d 8ca9 173e
00000340: ba38 4f3d c3a8 cbbd 9c5d d4bd ae80 c4bd
00000350: 8c21 1bbd ca25 8bbc c682 22be 6513 d6bd
00000360: 1872 7fbb f31a f8bd f787 c53d 5e18 d83b
00000370: 1361 f93d fd46 c73d 0e72 11bd 4863 67bd
00000380: bc25 cf3d 76bf 18be 7311 a93b de25 9bbd
00000390: d521 f23c 3e83 92bd 54fe 143d 2635 ab3d
000003a0: 0db4 89bc 089d b2bb 2dd0 833b 9c77 5f3d
000003b0: 0d96 953d 666e 1b3e e9e6 b13b 641d a23d
000003c0: f06b a93b 4d19 a43d 1050 793d 5558 553d
000003d0: 92fd fdbd 7718 6dbd 6c9a 2fbd 9dec a53d
000003e0: c7fa a1bd 3293 673d 07b1 51ba b8bf ab3d
000003f0: cf6b 313d 34eb b5bc ba29 c5bc e5c6 0e3e

classifier.1.bias f4 [64]
-0.031050066 -0.08739667 0.0365184 -0.06444254 0.13660906 0.049577117 -0.11027029 -0.0065076533
-0.08085938 0.03974176 -0.04541228 0.0015305954 0.118633114 -0.07102124 0.11577953 0.09961254
0.032950368 0.11697465 -0.094073355 -0.11462396 -0.04516986 0.12637569 -0.047151204 0.053847775
-0.07228474 0.032057233 0.089640446 0.12871444 0.074725926 -0.052767843 0.06800783 0.10622093
-0.10404734 0.021680983 -0.06890014 0.06676745 -0.013962497 -0.006804102 -0.09655705 -0.09237524
0.030011056 0.08016062 -0.0033741891 0.11187757 0.0083655575 -0.09929926 0.045417715 -0.096784
0.11193301 0.018709501 0.016727261 0.04419309 0.035013016 -0.09298259 -0.049828693 -0.011904273
0.040980067 0.084627286 -0.06519918 0.03093484 0.043590073 -0.11060189 0.074477084 -0.009402336
00000000: b55c febc 06fd b2bd 5194 153d 73fa 83bd
00000010: 3fe3 0b3e 6011 4b3d 64d5 e1bd 273e d5bb
00000020: 9a99 a5bd 41c8 223d 3a02 3abd 429e c83a
00000030: ebf5 f23d 9573 91bd d11d ed3d a901 cc3d
00000040: f7f6 063d 6890 ef3d 88a9 c0bd f7bf eabd
00000050: 0804 39bd a168 013e 9f21 41bd 7c8f 5c3d
00000060: 060a 94bd 724e 033d 6995 b73d b8cd 033e
00000070: e809 993d 1823 58bd b047 8b3d 5c8a d93d
00000080: c616 d5bd 519c b13c 841b 8dbd 5fbd 883d
00000090: f5c2 64bc f2f4 debb b4bf c5bd 3b2f bdbd
000000a0: bfd9 f53c 402b a43d 8021 5dbb 1120 e53d
000000b0: b10f 093c 695d cbbd ed07 3a3d b136 c6bd
000000c0: 223d e53d ab44 993c 9c07 893c d003 353d
000000d0: cf69 0f3d a86d bebd 2c19 4cbd 240a 43bc
000000e0: b7da 273d 1251 ad3d 2687 85bd 106b fd3c
000000f0: 818b 323d 3e83 e2bd 7187 983d 410c 1abc

classifier.4.weight f4 [4, 64]
-0.07565114 0.027516082 -0.11792191 0.062461577 -0.123703375 0.1207525 -0.014517844 0.15950257
0.09277609 -0.106629 -0.18984199 0.07873445 0.0012841881 0.14118771 -0.00011886546 0.08774781
0.14947064 0.03732044 0.099809326 -0.060276497 0.098078206 -0.092101276 -0.1992045 -0.123444945
0.09934568 -0.17645547 0.05732614 0.09144235 -0.15939166 -0.10136014 -0.08859974 -0.06876078
-0.062296804 -0.07903049 0.026177365 -0.11153751 -0.0785562 -0.1748128 0.03782082 -0.05764156
0.13596077 0.052950766 0.0017065853 -0.08673005 -0.14994964 0.06257142 0.044985622 -0.06783344
0.0048848256 -0.06648118 -0.17277895 -0.009764999 -0.028783942 -0.040015563 -0.09063581 -0.044535447
0.17404619 0.042802375 -0.11688235 -0.033216517 -0.15395665 0.0396349 0.11842938 0.09538266
-0.0064583733 -0.056737423 -0.098140396 -0.13681312 -0.02783706 -0.11342595 -0.05069518 -0.07494186
-0.027103558 -0.06875691 -0.037928082 -0.078653045 -0.097678326 -0.13413487 -0.029829597 0.15083517
-0.025401177 -0.090339616 0.07186354 0.023297697 -0.009666264 0.1822624 -0.027051019 0.07930222
0.06985131 0.008334448 -0.0017162337 0.034873225 -0.16245455 -0.03068003 -0.17467575 0.013911426
0.076507725 -0.073977605 0.020884637 -0.050343253 -0.029102672 -0.1663115 -0.0166119 -0.10793679
0.13322754 -0.06497142 0.0003696829 -0.07145279 0.06258341 -0.12515068 0.062021952 0.0485383
-0.13802584 -0.08423023 0.17445078 0.06241584 0.035925966 0.10563791 0.049605906 0.1617193
0.13035938 0.1051851 -0.001780863 -0.08661858 -0.13536164 -0.051098455 0.08441419 -0.093068935
0.11651876 -0.028891683 -0.08088368 -0.16799337 -0.05119121 0.17619161 -0.088067606 -0.16217549
-0.122488245 -0.08479337 0.1305585 0.14109887 0.076582626 -0.094432734 0.18415412 -0.12186178
-0.18589407 0.10355019 0.110196225 -0.0976662 -0.057208225 -0.083829805 -0.044644307 0.08699643
-0.09986833 0.081354424 0.036689725 0.06627765 0.020777773 -0.048157275 0.04388679 0.026265845
0.039614134 -0.05759756 0.008021816 0.14148387 -0.06242249 0.07654194 -0.041057557 0.09888346
-0.16630276 -0.030553086 0.037274793 0.04880685 0.12413435 0.08062915 -0.15696949 -0.05116067
-0.05727034 -0.009683382 -0.18831865 0.07346609 -0.124559686 -0.02113317 -0.1114991 -0.0061100777
0.07171515 -0.082468614 -0.061851177 -0.007997474 -0.00045472258 -0.03088844 0.01850073 -0.11623911
-0.045192126 -0.09832981 0.13912794 -0.0309683 -0.0007200794 -0.03471547 0.118627265 0.112608895
0.09849723 -0.07396806 0.15380925 0.08480527 -0.17597014 -0.17592752 -0.13893166 -0.10461567
-0.19749369 -0.09200138 -0.070226856 0.16342075 -0.05360341 -0.07961745 0.14909856 0.035504013
-0.053570967 -0.035457883 0.07045014 -0.17152372 0.087262005 0.02124916 0.11585506 -0.07649228
0.06456077 0.12319042 -0.09501345 0.13912402 -0.02144511 0.11260542 -0.053222675 0.014792711
-0.1586628 -0.1511719 0.009931549 0.097925365 0.14426999 -0.114433765 0.12991725 0.03495731
0.15837033 0.04337213 0.03266726 -0.12292698 0.04898309 -0.016690671 -0.03641191 -0.05513975
-0.16114593 -0.11567837 0.029004162 0.119160615 -0.0683674 -0.10726972 -0.0034805897 0.12978435
00000000: fcee 9abd 6869 e13c 0b81 f1bd b6d7 7f3d
00000010: 3258 fdbd 164d f73d 40dc 6dbc a454 233e
00000020: 6401 be3d 4e60 dabd f065 42be 873f a13d
00000030: 3452 a83a 8393 103e 6847 f9b8 20b5 b33d
00000040: d50e 193e 51dd 183d d568 cc3d 7de4 76bd
00000050: 3add c83d 989f bcbd 44fc 4bbe b4d0 fcbd
00000060: bf75 cb3d beb0 34be d1ce 6a3d 2046 bb3d
00000070: 9137 23be e895 cfbd c873 b5bd 74d2 8cbd
00000080: ef2a 7fbd bdda a1bd ea71 d63c c76d e4bd
00000090: 13e2 a0bd 2002 33be 01ea 1a3d 8e19 6cbd
000000a0: 4d39 0b3e e7e2 583d 80af df3a 869f b1bd
000000b0: 668c 19be 7225 803d d842 383d 42ec 8abd
000000c0: e310 a03b 4927 88bd f7ec 30be 60fd 1fbc
000000d0: 4dcc ebbc 5ce7 23bd 449f b9bd cd6a 36bd
000000e0: 2a39 323e 8b51 2f3d 0360 efbd 0b0e 08bd
000000f0: d0a6 1dbe 3458 223d 1a8b f23d fc57 c33d
00000100: c3a0 d3bb 8065 68bd d5fd c8bd bd18 0cbe
00000110: 8c0a e4bc dd4b e8bd c0a5 4fbd 1e7b 99bd
00000120: 4808 debc 6cd0 8cbd 7a5a 1bbd d914 a1bd
00000130: 930b c8bd a75a 09be 335d f4bc 8974 1a3e
00000140: 2116 d0bc fa03 b9bd 312d 933d d0da be3c
00000150: 405f 1ebc ffa2 3a3e 199a ddbc 3469 a23d
00000160: 340e 8f3d 358d 083c 3ff3 e0ba 3ad7 0e3d
00000170: 7c5a 26be b054 fbbc 33de 32be c0ec 633c
00000180: 15b0 9c3d 9281 97bd 4216 ab3c ba34 4ebd
00000190: ba68 eebc 904d 2abe ae15 88bc f70d ddbd
000001a0: cd6c 083e bc0f 85bd 00d2 c139 d755 92bd
000001b0: bb2b 803d 8027 00be bb0a 7e3d 19d0 463d
000001c0: a556 0dbe e680 acbd 3aa3 323e c0a7 7f3d
000001d0: 1b27 133d b058 d83d 902f 4b3d bf99 253e
000001e0: ee7c 053e 496b d73d d96b e9ba 1565 b1bd
000001f0: 3e9c 0abe 9d4c 51bd 59e1 ac3d ed9a bebd
00000200: 63a1 ee3d 40ae ecbc 58a6 a5bd 7406 2cbe
00000210: e0ad 51bd 936b 343e ca5c b4bd 5511 26be
00000220: 1edb fabd 25a8 adbd 21b1 053e 397c 103e
00000230: 5ad7 9c3d f365 c1bd e692 3c3e ab92 f9bd
00000240: 045b 3ebe 1f12 d43d 8fae e13d 3705 c8bd
00000250: 2c53 6abd f6ae abbd f3dc 36bd 2f2b b23d
00000260: c487 ccbd 269d a63d f747 163d 94bc 873d
00000270: 2636 aa3c 9040 45bd a2c2 333d 782b d73c
00000280: 6e42 223d 6beb 6bbd ef6d 033c 26e1 103e
00000290: baae 7fbd 05c2 9c3d f82b 28bd 6983 ca3d
000002a0: 454b 2abe 774a fabc 74ad 183d b1e9 473d
000002b0: 263a fe3d e520 a53d 9cbc 20be da8d 51bd
000002c0: 4e94 6abd 0ca7 1ebc 9bd6 40be 6475 963d
000002d0: 2619 ffbd 781f adbc a459 e4bd 0c37 c8bb
000002e0: 64df 923d 4ee5 a8bd a957 7dbd d607 03bc
000002f0: d567 eeb9 c109 fdbc d88e 973c c50e eebd
00000300: 611b 39bd 2461 c9bd 8e77 0e3e 3bb1 fdbc
00000310: b6c3 3cba cf31 0ebd daf2 f23d 7e9f e63d
00000320: eab8 c93d 917c 97bd 2c80 1d3e 63ae ad3d
00000330: 8431 34be 5826 34be 1a44 0ebe be40 d6bd
00000340: c93b 4abe 386b bcbd 19d3 8fbd c557 273e
00000350: 408f 5bbd 790e a3bd 4bad 183e a86c 113d
00000360: 3b6d 5bbd 493c 11bd 2a48 903d eaa3 2fbe
00000370: 6cb6 b23d b812 ae3c 6b45 ed3d fca7 9cbd
00000380: 7038 843d 424b fc3d 6996 c2bd 8776 0e3e
00000390: a8ad afbc ac9d e63d 0500 5abd 205d 723c
000003a0: 8078 22be cecc 1abe f0b7 223c 188d c83d
000003b0: 83bb 133e 405c eabd 0709 053e 652f 0f3d
000003c0: d52b 223e f9a6 313d 1bce 053d 24c1 fbbd
000003d0: 7ea2 483d e0ba 88bc a824 15bd 38da 61bd
000003e0: 7003 25be c8e8 ecbd 239a ed3c 7b0a f43d
000003f0: 3504 8cbd 3ab0 dbbd 9b1a 64bb 30e6 043e

classifier.4.bias f4 [4]
-0.0025541761 -0.0027768016 -0.04744887 -0.04770422
00000000: f763 27bb 00fb 35bb bf59 42bd 8065 43bd
